> Seed: 66666
> device: cuda:1
> Loading DataSet from data/ny2016_0101to0331/
> Total Hours: 2184, starting from 1
> Unify FB Graphs: False, Mix FB Graphs: False
> Training batches: 53, Validation batches: 6
> Loading the Pretrained Model: model_save/20220402_21_40_46.pth, Train type = retrain
> Model Structure:
Gallat(
  (spatAttLayer): SpatAttLayer(
    (dimSpatAttLayers): ModuleList(
      (0): MultiHeadPwGaANLayer(
        (pwGaAN): PwGaANLayer(
          (Wa): Linear(in_features=43, out_features=16, bias=False)
          (att_out_fc_l): Linear(in_features=16, out_features=1, bias=False)
          (att_out_fc_r): Linear(in_features=16, out_features=1, bias=False)
        )
      )
      (1): MultiHeadPwGaANLayer(
        (pwGaAN): PwGaANLayer(
          (Wa): Linear(in_features=43, out_features=16, bias=False)
          (att_out_fc_l): Linear(in_features=16, out_features=1, bias=False)
          (att_out_fc_r): Linear(in_features=16, out_features=1, bias=False)
        )
      )
      (2): MultiHeadPwGaANLayer(
        (pwGaAN): PwGaANLayer(
          (Wa): Linear(in_features=43, out_features=16, bias=False)
          (att_out_fc_l): Linear(in_features=16, out_features=1, bias=False)
          (att_out_fc_r): Linear(in_features=16, out_features=1, bias=False)
        )
      )
    )
    (proj_fc): Linear(in_features=43, out_features=16, bias=False)
    (bn): BatchNorm1d(64, eps=1e-05, momentum=0.1, affine=True, track_running_stats=True)
  )
  (tempAttLayer): TempAttLayer(
    (recScaledDotProductAttention): ScaledDotProductAttention(
      (Wq): Linear(in_features=41, out_features=64, bias=False)
      (Wk): Linear(in_features=64, out_features=64, bias=False)
      (Wv): Linear(in_features=64, out_features=64, bias=False)
      (bn): BatchNorm1d(64, eps=1e-05, momentum=0.1, affine=True, track_running_stats=True)
    )
    (combScaledDotProductAttention): ScaledDotProductAttention(
      (Wq): Linear(in_features=41, out_features=64, bias=False)
      (Wk): Linear(in_features=64, out_features=64, bias=False)
      (Wv): Linear(in_features=64, out_features=64, bias=False)
      (bn): BatchNorm1d(64, eps=1e-05, momentum=0.1, affine=True, track_running_stats=True)
    )
  )
  (tranAttLayer): TranAttLayer(
    (demand_fc): Linear(in_features=64, out_features=1, bias=True)
    (activate_function): Sigmoid()
    (Wa): Linear(in_features=64, out_features=64, bias=False)
    (att_out_fc_l): Linear(in_features=64, out_features=1, bias=False)
    (att_out_fc_r): Linear(in_features=64, out_features=1, bias=False)
  )
)
> Constructing the Optimizer: ADAM
> Using SmoothL1Loss as the Loss Function.
> Model sent to cuda:1

learning_rate = 0.01, epochs = 200, num_workers = 20
eval_freq = 5, batch_size = 32, optimizer = ADAM
tune = False

Start Training!
------------------------------------------------------------------------
Training Round 1: loss = 21.430122, time_cost = 202.1334 sec (0.1204 sec per sample), RMSE-0 = 110.0456, MAPE-0 = 0.6792, MAE-0 = 21.2135
…
