> Seed: 66666
> device: cuda:0
> Loading DataSet from data/ny2016_0101to0331/
> Total Hours: 2184, starting from 1
> Unify FB Graphs: False, Mix FB Graphs: False
> Training batches: 53, Validation batches: 6
> Initializing the Training Model: GallatExtFull, Train type = normal
> Model Structure:
GallatExtFull(
  (spatAttLayer): SpatAttLayer(
    (dimSpatAttLayers): ModuleList(
      (0): MultiHeadPwGaANLayer(
        (pwGaAN): PwGaANLayer(
          (Wa): Linear(in_features=43, out_features=16, bias=False)
          (att_out_fc_l): Linear(in_features=16, out_features=1, bias=False)
          (att_out_fc_r): Linear(in_features=16, out_features=1, bias=False)
          (gate_fc_l): Linear(in_features=43, out_features=1, bias=False)
          (gate_fc_m): Linear(in_features=16, out_features=1, bias=False)
          (gate_fc_r): Linear(in_features=43, out_features=1, bias=False)
          (Wg): Linear(in_features=43, out_features=16, bias=False)
        )
      )
      (1): MultiHeadPwGaANLayer(
        (pwGaAN): PwGaANLayer(
          (Wa): Linear(in_features=43, out_features=16, bias=False)
          (att_out_fc_l): Linear(in_features=16, out_features=1, bias=False)
          (att_out_fc_r): Linear(in_features=16, out_features=1, bias=False)
          (gate_fc_l): Linear(in_features=43, out_features=1, bias=False)
          (gate_fc_m): Linear(in_features=16, out_features=1, bias=False)
          (gate_fc_r): Linear(in_features=43, out_features=1, bias=False)
          (Wg): Linear(in_features=43, out_features=16, bias=False)
        )
      )
      (2): MultiHeadPwGaANLayer(
        (pwGaAN): PwGaANLayer(
          (Wa): Linear(in_features=43, out_features=16, bias=False)
          (att_out_fc_l): Linear(in_features=16, out_features=1, bias=False)
          (att_out_fc_r): Linear(in_features=16, out_features=1, bias=False)
          (gate_fc_l): Linear(in_features=43, out_features=1, bias=False)
          (gate_fc_m): Linear(in_features=16, out_features=1, bias=False)
          (gate_fc_r): Linear(in_features=43, out_features=1, bias=False)
          (Wg): Linear(in_features=43, out_features=16, bias=False)
        )
      )
    )
    (proj_fc): Linear(in_features=43, out_features=16, bias=False)
    (bn): BatchNorm1d(160, eps=1e-05, momentum=0.1, affine=True, track_running_stats=True)
  )
  (tempLayer): TempRecurrentLayer(
    (recurrentBlocks): ModuleList(
      (0): RecurrentBlock(
        (blk_module): LSTM(160, 160)
      )
      (1): RecurrentBlock(
        (blk_module): LSTM(160, 160)
      )
      (2): RecurrentBlock(
        (blk_module): LSTM(160, 160)
      )
      (3): RecurrentBlock(
        (blk_module): LSTM(160, 160)
      )
    )
    (bn): BatchNorm1d(640, eps=1e-05, momentum=0.1, affine=True, track_running_stats=True)
  )
  (tranAttLayer): TranAttLayer(
    (demand_fc): Linear(in_features=640, out_features=1, bias=True)
    (Wa): Linear(in_features=640, out_features=640, bias=False)
    (att_out_fc_l): Linear(in_features=640, out_features=1, bias=False)
    (att_out_fc_r): Linear(in_features=640, out_features=1, bias=False)
  )
)
> Constructing the Optimizer: ADAM
> Using SmoothL1Loss as the Loss Function.
> Model sent to cuda:0

learning_rate = 0.01, epochs = 200, num_workers = 20
eval_freq = 5, batch_size = 32, optimizer = ADAM
tune = True, use_AR=None, ref_extent = -1.00

Start Training!
------------------------------------------------------------------------
Training Round 1: loss = 21.831126, time_cost = 326.7344 sec (0.1946 sec per sample), RMSE-0 = 1362.7935, MAPE-0 = 3.7772, MAE-0 = 122.5155
…
