> Seed: 66666
> device: cuda:1
> Loading model_save/20220331_16_07_02.pth
> Model Structure:
Gallat(
  (spatAttLayer): SpatAttLayer(
    (dimSpatAttLayers): ModuleList(
      (0): MultiHeadPwGaANLayer(
        (pwGaAN): PwGaANLayer(
          (Wa): Linear(in_features=43, out_features=16, bias=False)
          (att_out_fc_l): Linear(in_features=16, out_features=1, bias=False)
          (att_out_fc_r): Linear(in_features=16, out_features=1, bias=False)
        )
      )
      (1): MultiHeadPwGaANLayer(
        (pwGaAN): PwGaANLayer(
          (Wa): Linear(in_features=43, out_features=16, bias=False)
          (att_out_fc_l): Linear(in_features=16, out_features=1, bias=False)
          (att_out_fc_r): Linear(in_features=16, out_features=1, bias=False)
        )
      )
      (2): MultiHeadPwGaANLayer(
        (pwGaAN): PwGaANLayer(
          (Wa): Linear(in_features=43, out_features=16, bias=False)
          (att_out_fc_l): Linear(in_features=16, out_features=1, bias=False)
          (att_out_fc_r): Linear(in_features=16, out_features=1, bias=False)
        )
      )
    )
    (proj_fc): Linear(in_features=43, out_features=16, bias=False)
    (bn): BatchNorm1d(64, eps=1e-05, momentum=0.1, affine=True, track_running_stats=True)
  )
  (tempAttLayer): TempAttLayer(
    (recScaledDotProductAttention): ScaledDotProductAttention(
      (Wq): Linear(in_features=41, out_features=64, bias=False)
      (Wk): Linear(in_features=64, out_features=64, bias=False)
      (Wv): Linear(in_features=64, out_features=64, bias=False)
      (bn): BatchNorm1d(64, eps=1e-05, momentum=0.1, affine=True, track_running_stats=True)
    )
    (combScaledDotProductAttention): ScaledDotProductAttention(
      (Wq): Linear(in_features=41, out_features=64, bias=False)
      (Wk): Linear(in_features=64, out_features=64, bias=False)
      (Wv): Linear(in_features=64, out_features=64, bias=False)
      (bn): BatchNorm1d(64, eps=1e-05, momentum=0.1, affine=True, track_running_stats=True)
    )
  )
  (tranAttLayer): TranAttLayer(
    (demand_fc): Linear(in_features=64, out_features=1, bias=True)
    (activate_function): Sigmoid()
    (Wa): Linear(in_features=64, out_features=64, bias=False)
    (att_out_fc_l): Linear(in_features=64, out_features=1, bias=False)
    (att_out_fc_r): Linear(in_features=64, out_features=1, bias=False)
  )
)
> Model sent to cuda:1
> Loading DataSet from data/dc2017_0101to0331/
> Total Hours: 2136, starting from 1
> Unify FB Graphs: False, Mix FB Graphs: False
> Validation batches: 6, Test batches: 11
tune = True, ref_extent = -1.00
> Metrics Evaluations for Validation Set:
Demand:
RMSE-0 = 158.4506, RMSE-3 = 212.9374, RMSE-5 = 232.7540
MAPE-0 = 0.5985, MAPE-3 = 0.8557, MAPE-5 = 0.8981
…
