> Seed: 66666
> device: cuda:0
> Loading DataSet from data/ny2016_0101to0331/
> Total Hours: 2184, starting from 1
> Unify FB Graphs: False, Mix FB Graphs: False
> Training batches: 53, Validation batches: 6
> Initializing the Training Model: GallatExt, Train type = normal
> Model Structure:
GallatExt(
  (spatAttLayer): SpatAttLayer(
    (dimSpatAttLayers): ModuleList(
      (0): MultiHeadPwGaANLayer(
        (pwGaAN): PwGaANLayer(
          (Wa): Linear(in_features=43, out_features=8, bias=False)
          (att_out_fc_l): Linear(in_features=8, out_features=1, bias=False)
          (att_out_fc_r): Linear(in_features=8, out_features=1, bias=False)
          (gate_fc_l): Linear(in_features=43, out_features=1, bias=False)
          (gate_fc_m): Linear(in_features=8, out_features=1, bias=False)
          (gate_fc_r): Linear(in_features=43, out_features=1, bias=False)
          (Wg): Linear(in_features=43, out_features=8, bias=False)
        )
      )
      (1): MultiHeadPwGaANLayer(
        (pwGaAN): PwGaANLayer(
          (Wa): Linear(in_features=43, out_features=8, bias=False)
          (att_out_fc_l): Linear(in_features=8, out_features=1, bias=False)
          (att_out_fc_r): Linear(in_features=8, out_features=1, bias=False)
          (gate_fc_l): Linear(in_features=43, out_features=1, bias=False)
          (gate_fc_m): Linear(in_features=8, out_features=1, bias=False)
          (gate_fc_r): Linear(in_features=43, out_features=1, bias=False)
          (Wg): Linear(in_features=43, out_features=8, bias=False)
        )
      )
      (2): MultiHeadPwGaANLayer(
        (pwGaAN): PwGaANLayer(
          (Wa): Linear(in_features=43, out_features=8, bias=False)
          (att_out_fc_l): Linear(in_features=8, out_features=1, bias=False)
          (att_out_fc_r): Linear(in_features=8, out_features=1, bias=False)
          (gate_fc_l): Linear(in_features=43, out_features=1, bias=False)
          (gate_fc_m): Linear(in_features=8, out_features=1, bias=False)
          (gate_fc_r): Linear(in_features=43, out_features=1, bias=False)
          (Wg): Linear(in_features=43, out_features=8, bias=False)
        )
      )
    )
    (proj_fc): Linear(in_features=43, out_features=8, bias=False)
    (bn): BatchNorm1d(32, eps=1e-05, momentum=0.1, affine=True, track_running_stats=True)
  )
  (tempLayer): TempRecurrentLayer(
    (recurrentBlocks): ModuleList(
      (0): RecurrentBlock(
        (blk_module): LSTM(32, 32)
      )
      (1): RecurrentBlock(
        (blk_module): LSTM(32, 32)
      )
      (2): RecurrentBlock(
        (blk_module): LSTM(32, 32)
      )
      (3): RecurrentBlock(
        (blk_module): LSTM(32, 32)
      )
    )
    (bn): BatchNorm1d(32, eps=1e-05, momentum=0.1, affine=True, track_running_stats=True)
  )
  (tranAttLayer): TranAttLayer(
    (demand_fc): Linear(in_features=32, out_features=1, bias=True)
    (Wa): Linear(in_features=32, out_features=32, bias=False)
    (att_out_fc_l): Linear(in_features=32, out_features=1, bias=False)
    (att_out_fc_r): Linear(in_features=32, out_features=1, bias=False)
  )
)
> Constructing the Optimizer: ADAM
> Using SmoothL1Loss as the Loss Function.
> Model sent to cuda:0

learning_rate = 0.01, epochs = 200, num_workers = 20
eval_freq = 5, batch_size = 32, optimizer = ADAM
tune = True, use_AR=None, ref_extent = -1.00
num_heads = 3
Demand task ~ 50.00%, OD task ~ 50.00%

Start Training!
------------------------------------------------------------------------
…
