> Seed: 66666
> device: cuda:0
> Loading DataSet from data/ny2016_0101to0331/
> Total Hours: 2184, starting from 1
> Unify FB Graphs: False, Mix FB Graphs: False
> Training batches: 53, Validation batches: 6
> Initializing the Training Model: GallatExt, Train type = normal
> Model Structure:
GallatExt(
  (ref_AR): AR(
    (linear_D): Linear(in_features=7, out_features=1, bias=True)
    (linear_G): Linear(in_features=7, out_features=1, bias=True)
  )
  (spatAttLayer): SpatAttLayer(
    (dimSpatAttLayers): ModuleList(
      (0): MultiHeadPwGaANLayer(
        (pwGaAN): PwGaANLayer(
          (Wa): Linear(in_features=43, out_features=16, bias=False)
          (att_out_fc_l): Linear(in_features=16, out_features=1, bias=False)
          (att_out_fc_r): Linear(in_features=16, out_features=1, bias=False)
          (gate_fc_l): Linear(in_features=43, out_features=1, bias=False)
          (gate_fc_m): Linear(in_features=16, out_features=1, bias=False)
          (gate_fc_r): Linear(in_features=43, out_features=1, bias=False)
          (Wg): Linear(in_features=43, out_features=16, bias=False)
        )
      )
      (1): MultiHeadPwGaANLayer(
        (pwGaAN): PwGaANLayer(
          (Wa): Linear(in_features=43, out_features=16, bias=False)
          (att_out_fc_l): Linear(in_features=16, out_features=1, bias=False)
          (att_out_fc_r): Linear(in_features=16, out_features=1, bias=False)
          (gate_fc_l): Linear(in_features=43, out_features=1, bias=False)
          (gate_fc_m): Linear(in_features=16, out_features=1, bias=False)
          (gate_fc_r): Linear(in_features=43, out_features=1, bias=False)
          (Wg): Linear(in_features=43, out_features=16, bias=False)
        )
      )
      (2): MultiHeadPwGaANLayer(
        (pwGaAN): PwGaANLayer(
          (Wa): Linear(in_features=43, out_features=16, bias=False)
          (att_out_fc_l): Linear(in_features=16, out_features=1, bias=False)
          (att_out_fc_r): Linear(in_features=16, out_features=1, bias=False)
          (gate_fc_l): Linear(in_features=43, out_features=1, bias=False)
          (gate_fc_m): Linear(in_features=16, out_features=1, bias=False)
          (gate_fc_r): Linear(in_features=43, out_features=1, bias=False)
          (Wg): Linear(in_features=43, out_features=16, bias=False)
        )
      )
    )
    (proj_fc): Linear(in_features=43, out_features=16, bias=False)
    (bn): BatchNorm1d(64, eps=1e-05, momentum=0.1, affine=True, track_running_stats=True)
  )
  (tempLayer): TempRecurrentLayer(
    (recurrentBlocks): ModuleList(
      (0): RecurrentBlock(
        (blk_module): LSTM(64, 64)
      )
      (1): RecurrentBlock(
        (blk_module): LSTM(64, 64)
      )
      (2): RecurrentBlock(
        (blk_module): LSTM(64, 64)
      )
      (3): RecurrentBlock(
        (blk_module): LSTM(64, 64)
      )
    )
    (bn): BatchNorm1d(64, eps=1e-05, momentum=0.1, affine=True, track_running_stats=True)
  )
  (tranAttLayer): TranAttLayer(
    (demand_fc): Linear(in_features=64, out_features=1, bias=True)
    (Wa): Linear(in_features=64, out_features=64, bias=False)
    (att_out_fc_l): Linear(in_features=64, out_features=1, bias=False)
    (att_out_fc_r): Linear(in_features=64, out_features=1, bias=False)
  )
)
> Constructing the Optimizer: ADAM
> Using SmoothL1Loss as the Loss Function.
> Model sent to cuda:0

learning_rate = 0.01, epochs = 200, num_workers = 20
eval_freq = 5, batch_size = 32, optimizer = ADAM
tune = True, use_AR=AR(
  (linear_D): Linear(in_features=7, out_features=1, bias=True)
  (linear_G): Linear(in_features=7, out_features=1, bias=True)
), ref_extent = -1.00

Start Training!
------------------------------------------------------------------------
Training Round 1: loss = 11.558783, time_cost = 310.3878 sec (0.1849 sec per sample), RMSE-0 = 89.3384, MAPE-0 = 0.6760, MAE-0 = 13.0397
Training Round 2: loss = 3.402709, time_cost = 320.0454 sec (0.1906 sec per sample), RMSE-0 = 26.0725, MAPE-0 = 0.4510, MAE-0 = 5.7880
…
Training Round 198: loss = 1.795661, time_cost = 298.2217 sec (0.1776 sec per sample), RMSE-0 = 20.8436, MAPE-0 = 0.4227, MAE-0 = 5.0000
Training Round 199: loss = 1.768553, time_cost = 302.6952 sec (0.1803 sec per sample), RMSE-0 = 20.2369, MAPE-0 = 0.4229, MAE-0 = 4.9306
Training Round 200: loss = 1.770414, time_cost = 301.7790 sec (0.1797 sec per sample), RMSE-0 = 20.2536, MAPE-0 = 0.4241, MAE-0 = 4.9440
!!! Validation : loss = 2.154609, RMSE-0 = 19.6625, MAPE-0 = 0.4387, MAE-0 = 4.8171
> Training finished.

> device: cuda:0
> Loading model_save/20220410_18_40_36.pth
> Model Structure:
GallatExt(
  (ref_AR): AR(
    (linear_D): Linear(in_features=7, out_features=1, bias=True)
    (linear_G): Linear(in_features=7, out_features=1, bias=True)
  )
  (spatAttLayer): SpatAttLayer(
    (dimSpatAttLayers): ModuleList(
      (0): MultiHeadPwGaANLayer(
        (pwGaAN): PwGaANLayer(
          (Wa): Linear(in_features=43, out_features=16, bias=False)
          (att_out_fc_l): Linear(in_features=16, out_features=1, bias=False)
          (att_out_fc_r): Linear(in_features=16, out_features=1, bias=False)
          (gate_fc_l): Linear(in_features=43, out_features=1, bias=False)
          (gate_fc_m): Linear(in_features=16, out_features=1, bias=False)
          (gate_fc_r): Linear(in_features=43, out_features=1, bias=False)
          (Wg): Linear(in_features=43, out_features=16, bias=False)
        )
      )
      (1): MultiHeadPwGaANLayer(
        (pwGaAN): PwGaANLayer(
          (Wa): Linear(in_features=43, out_features=16, bias=False)
          (att_out_fc_l): Linear(in_features=16, out_features=1, bias=False)
          (att_out_fc_r): Linear(in_features=16, out_features=1, bias=False)
          (gate_fc_l): Linear(in_features=43, out_features=1, bias=False)
          (gate_fc_m): Linear(in_features=16, out_features=1, bias=False)
          (gate_fc_r): Linear(in_features=43, out_features=1, bias=False)
          (Wg): Linear(in_features=43, out_features=16, bias=False)
        )
      )
      (2): MultiHeadPwGaANLayer(
        (pwGaAN): PwGaANLayer(
          (Wa): Linear(in_features=43, out_features=16, bias=False)
          (att_out_fc_l): Linear(in_features=16, out_features=1, bias=False)
          (att_out_fc_r): Linear(in_features=16, out_features=1, bias=False)
          (gate_fc_l): Linear(in_features=43, out_features=1, bias=False)
          (gate_fc_m): Linear(in_features=16, out_features=1, bias=False)
          (gate_fc_r): Linear(in_features=43, out_features=1, bias=False)
          (Wg): Linear(in_features=43, out_features=16, bias=False)
        )
      )
    )
    (proj_fc): Linear(in_features=43, out_features=16, bias=False)
    (bn): BatchNorm1d(64, eps=1e-05, momentum=0.1, affine=True, track_running_stats=True)
  )
  (tempLayer): TempRecurrentLayer(
    (recurrentBlocks): ModuleList(
      (0): RecurrentBlock(
        (blk_module): LSTM(64, 64)
      )
      (1): RecurrentBlock(
        (blk_module): LSTM(64, 64)
      )
      (2): RecurrentBlock(
        (blk_module): LSTM(64, 64)
      )
      (3): RecurrentBlock(
        (blk_module): LSTM(64, 64)
      )
    )
    (bn): BatchNorm1d(64, eps=1e-05, momentum=0.1, affine=True, track_running_stats=True)
  )
  (tranAttLayer): TranAttLayer(
    (demand_fc): Linear(in_features=64, out_features=1, bias=True)
    (Wa): Linear(in_features=64, out_features=64, bias=False)
    (att_out_fc_l): Linear(in_features=64, out_features=1, bias=False)
    (att_out_fc_r): Linear(in_features=64, out_features=1, bias=False)
  )
)
> Model sent to cuda:0
> Loading DataSet from data/ny2016_0101to0331/
> Total Hours: 2184, starting from 1
> Unify FB Graphs: False, Mix FB Graphs: False
> Validation batches: 6, Test batches: 11
tune = True, ref_extent = -1.00
> Metrics Evaluations for Validation Set:
Demand:
RMSE-0 = 130.7284, RMSE-3 = 172.4398, RMSE-5 = 176.2566
MAPE-0 = 0.6518, MAPE-3 = 0.5601, MAPE-5 = 0.4366
…
