> Seed: 66666
> device: cuda:2
> Loading DataSet from data/ny2016_0101to0331/
> Total Hours: 2184, starting from 1
> Unify FB Graphs: False, Mix FB Graphs: False
> Training batches: 53, Validation batches: 6
> Initializing the Training Model: LSTNet, Train type = normal
> Model Structure:
LSTNet(
  (refAR): AR(
    (linear_D): Linear(in_features=7, out_features=1, bias=True)
    (linear_G): Linear(in_features=7, out_features=1, bias=True)
  )
  (l_stConv_last_D): Linear(in_features=1, out_features=1, bias=True)
  (l_stConv_current_D): Linear(in_features=1, out_features=1, bias=True)
  (l_stConv_last_G): Linear(in_features=1, out_features=1, bias=True)
  (l_stConv_current_G): Linear(in_features=1, out_features=1, bias=True)
  (bn_stConv_D): BatchNorm1d(1, eps=1e-05, momentum=0.1, affine=True, track_running_stats=True)
  (bn_stConv_G): BatchNorm1d(1, eps=1e-05, momentum=0.1, affine=True, track_running_stats=True)
  (gru_D): GRU(1, 1)
  (gru_G): GRU(1, 1)
  (bn_gru_D): BatchNorm1d(1, eps=1e-05, momentum=0.1, affine=True, track_running_stats=True)
  (bn_gru_G): BatchNorm1d(1, eps=1e-05, momentum=0.1, affine=True, track_running_stats=True)
  (l_att_l_D): Linear(in_features=1, out_features=1, bias=False)
  (l_att_r_D): Linear(in_features=1, out_features=1, bias=False)
  (l_att_l_G): Linear(in_features=1, out_features=1, bias=False)
  (l_att_r_G): Linear(in_features=1, out_features=1, bias=False)
  (l_att_comb_D): Linear(in_features=8, out_features=1, bias=True)
  (l_att_comb_G): Linear(in_features=8, out_features=1, bias=True)
)
> Constructing the Optimizer: ADAM
> Using SmoothL1Loss as the Loss Function.
> Model sent to cuda:2

learning_rate = 0.01, epochs = 200, num_workers = 20
eval_freq = 5, batch_size = 32, optimizer = ADAM

Start Training!
------------------------------------------------------------------------
Training Round 1: loss = 3.177413, time_cost = 166.2165 sec (0.0990 sec per sample), RMSE-0 = 29.6803, MAPE-0 = 0.6553, MAE-0 = 7.2387
…
